cifar_net.pth (torch, 250887 bytes, 10 tensors)

conv1.weight f4 [6, 3, 5, 5]
-0.034813184 0.06958026 0.13852489 0.19870421 0.20450136 -0.052238885 -0.04712013 -0.08522586
-0.20565595 -0.14635354 -0.09218676 -0.3746989 -0.47170824 -0.40128332 -0.21869384 -0.056319192
-0.011892339 -0.095975205 -0.024529362 -0.030147428 0.043305673 0.106529124 0.13266027 -0.051472723
-0.0010228987 -0.015652735 0.040051006 0.09157263 0.14475442 0.14386514 -0.1154503 0.017929971
-0.14353335 -0.10292815 -0.16042739 -0.20540373 -0.39792824 -0.29867285 -0.219474 -0.2509218
-0.014469696 -0.01290703 -0.047587067 0.054368436 -0.028965572 -0.008697429 0.15656172 0.22231928
0.20862795 0.01063764 0.2107087 0.2691074 0.16411854 0.34691158 0.20388395 0.08445068
0.026483791 -0.002695662 -0.016856723 0.013995004 -0.2198177 -0.33364835 -0.3354367 -0.25757325
-0.1705186 0.015298274 -0.071860716 -0.04368232 -0.06675639 0.08077011 0.10470206 0.069558986
0.10831989 0.07974342 0.007937851 0.36726844 0.37664092 0.63818604 0.5558633 0.28585896
0.16843551 0.5020178 0.5597089 0.44618395 0.22456293 0.016980236 -0.10865416 -0.05920091
-0.018104294 0.02009988 -0.18465091 -0.23578954 -0.32772398 -0.39228192 -0.22040825 -0.28358987
-0.2139466 -0.28936246 -0.42521828 -0.38134453 0.03482651 0.027018094 -0.0074176625 -0.067894705
-0.110627055 -0.08837202 -0.16443852 -0.11752163 -0.14456265 -0.0073929643 -0.24006553 -0.29308414
-0.34799033 -0.13184983 0.03505347 -0.009289935 -0.22534266 -0.28658083 -0.15896869 -0.09016482
0.08635386 0.044933032 0.19880791 0.10512413 -0.0824685 0.11588866 0.030740188 -0.0054075564
-0.14377528 -0.08294802 -0.04294323 -0.18992811 0.046751123 -0.089762926 -0.014013412 -0.2173268
-0.26975888 -0.30386618 -0.024898242 0.051285464 0.0024148922 0.088772394 0.05665743 0.012941477
0.16032864 0.12581632 0.3699342 0.3880475 0.27634785 0.20797504 0.054608908 -0.043589294
-0.14443195 -0.14999431 -0.14095399 0.042120267 0.053915456 -0.12853049 -0.32099223 -0.24089576
0.03483664 -0.023279741 -0.011426696 -0.07434913 -0.000525334 -0.16185923 0.12121695 0.21367146
0.33616576 0.25259596 0.11548823 0.12247287 0.22677611 0.26202765 0.11548718 0.029970279
-0.011255803 -0.058831178 -0.037474524 -0.06875026 0.114290826 0.015360448 -0.1940469 -0.27244577
-0.1948817 -0.070579626 -0.057333205 0.022297537 -0.07857044 -0.07057596 -0.1441757 0.06727644
0.19556506 0.24521413 0.050917316 0.02890994 0.056144144 0.028226621 0.0551138 0.010746423
0.16171403 0.03718738 -0.009732611 -0.047614153 -0.04963238 0.17894572 -0.023310846 -0.09092828
-0.31111392 -0.13022065 0.07300426 -0.0750434 -0.1311756 -0.054678515 0.039551124 -0.16661222
0.07127551 0.26986864 0.24839275 0.16678801 -0.1645815 0.047829613 -0.022027407 0.08903173
0.09471297 -0.19483867 0.13940337 0.16421236 0.019535398 -0.10209674 -0.06170548 0.4690109
-0.12938647 -0.4473101 -0.090513855 0.38086292 0.27146256 -0.63268363 -0.3428765 0.11789441
0.20248592 -0.38740784 -0.68910086 -0.06721448 0.36164138 -0.21800943 -0.045181513 0.009927214
0.25475147 0.12428277 -0.18983684 0.27154517 0.30514175 -0.09884144 -0.096953444 -0.037265975
00000000: 4598 0ebd 1880 8e3d 78d9 0d3e 1e79 4b3e
00000010: ce68 513e 71f8 55bd 0a01 41bd e58a aebd
00000020: 7997 52be b4dd 15be 69cc bcbd 89d8 bfbe
00000030: be83 f1be 0275 cdbe 47f1 5fbe f4ae 66bd
00000040: 16d8 42bc a68e c4bd cdf1 c8bc bdf7 f6bc
00000050: 4a61 313d f12b da3d 18d8 073e 10d5 52bd
00000060: c912 86ba 2a3a 80bc 860c 243d 6e8a bb3d
00000070: 813a 143e 6251 133e 3571 ecbd e0e1 923c
00000080: 68fa 12be fecb d2bd 1447 24be 5b55 52be
00000090: 40bd cbbe a6eb 98be cbbd 60be d278 80be
000000a0: 4e12 6dbc 0278 53bc a8ea 42bd 70b1 5e3d
000000b0: 3549 edbc a97f 0ebc b751 203e aaa7 633e
000000c0: 91a2 553e 7f49 2e3c 05c4 573e 72c8 893e
000000d0: b10e 283e 659e b13e f4c6 503e 7af4 ac3d
000000e0: 89f4 d83c b4a9 30bb 1c17 8abc 4d4b 653c
000000f0: e417 61be f5d3 aabe 5cbe abbe a4e0 83be
00000100: 6e9c 2ebe 9da5 7a3c b62b 93bd 3bec 32bd
00000110: 93b7 88bd cd6a a53d 096e d63d f174 8e3d
00000120: d2d6 dd3d 8550 a33d c30d 023c 9c0a bc3e
00000130: 14d7 c03e 2960 233f 0f4d 0e3f 1b5c 923e
00000140: 5c7a 2c3e 3d84 003f 1549 0f3f 3972 e43e
00000150: d3f3 653e 231a 8b3c 1286 debd a77c 72bd
00000160: 754f 94bc 81a8 a43c 2115 3dbe d072 71be
00000170: 70cb a7be 2dd9 c8be b3b2 61be b132 91be
00000180: d114 5bbe 5127 94be 36b6 d9be 973f c3be
00000190: 3ea6 0e3d 0d55 dd3c dd0f f3bb 610c 8bbd
000001a0: 7090 e2bd 64fc b4bd 9262 28be 2eaf f0bd
000001b0: 3b08 14be ae40 f2bb bdd3 75be 200f 96be
000001c0: ca2b b2be a403 07be 3a94 0f3d d034 18bc
000001d0: 3ac0 66be b9ba 92be b0c8 22be 55a8 b8bd
000001e0: 4bda b03d b30b 383d 4d94 4b3e 524b d73d
000001f0: 3fe5 a8bd 0957 ed3d d9d2 fb3c df31 b1bb
00000200: d439 13be a7e0 a9bd 3ee5 2fbd 847c 42be
00000210: 1b7e 3f3d a0d5 b7bd 8398 65bc eb8a 5ebe
00000220: d61d 8abe 5994 9bbe 66f7 cbbc b510 523d
00000230: 2b43 1e3b 4dce b53d 9f11 683d 7d08 543c
00000240: 312d 243e fed5 003e 0468 bd3e 29ae c63e
00000250: 777d 8d3e 69f7 543e 97ad 5f3d b08a 32bd
00000260: f8e5 13be 1c98 19be 3e56 10be 4d86 2c3d
00000270: 74d6 5c3d 7f9d 03be 1859 a4be 61ad 76be
00000280: ddb0 0e3d 28b5 bebc 0937 3bbc 5b44 98bd
00000290: 91b6 09ba 6dbe 25be 9840 f83d b1cc 5a3e
000002a0: eb1d ac3e 4254 813e 1885 ec3d 0ed3 fa3d
000002b0: ff37 683e 7d28 863e 8b84 ec3d 3b84 f53c
000002c0: 426a 38bc f6f8 70bd e37e 19bd f0cc 8cbd
000002d0: 4f11 ea3d 63aa 7b3c 3bb4 46be 037e 8bbe
000002e0: 128f 47be 0d8c 90bd 39d6 6abd 53a9 b63c
000002f0: 8ae9 a0bd 218a 90bd cba2 13be 3bc8 893d
00000300: 3542 483e 6a19 7b3e ad8e 503d 8ad4 ec3c
00000310: 67f7 653d 843b e73c 02bf 613d c411 303c
00000320: 5d98 253e cb51 183d 8775 1fbc 0f07 43bd
00000330: 534b 4bbd 8c3d 373e 63f6 bebc 9b38 babd
00000340: 534a 9fbe 9058 05be 4283 953d 5bb0 99bd
00000350: e652 06be 94f6 5fbd 5c00 223d 659c 2abe
00000360: e5f8 913d 392c 8a3e ab5a 7e3e 7aca 2a3e
00000370: 0e88 28be fce8 433d d272 b4bc 4556 b63d
00000380: e0f8 c13d ca83 47be c2bf 0e3e 4927 283e
00000390: b308 a03c 1818 d1bd e3be 7cbd 3222 f03e
000003a0: e37d 04be d405 e5be 545f b9bd 7700 c33e
000003b0: 24fd 8a3e 8ef7 21bf 828d afbe a072 f13d
000003c0: 7858 4f3e 525a c6be ea68 30bf bfa7 89bd
000003d0: 0f29 b93e dd3d 5fbe 4010 39bd c1a5 223c
000003e0: c96e 823e f787 fe3d 9764 42be f807 8b3e
000003f0: 8a3b 9c3e 626d cabd 878f c6bd 35a4 18bd

conv1.bias f4 [6]
-0.48786855 -0.45920435 -0.20619717 -0.1521228 -0.25241917 0.16504894
00000000: e8c9 f9be d51c ebbe 5a25 53be 14c6 1bbe
00000010: 163d 81be 9702 293e

conv2.weight f4 [16, 6, 5, 5]
-0.123876095 -0.12525328 -0.07501816 -0.14648882 -0.000924119 -0.08526999 -0.053309593 -0.16345695
0.025461566 0.030244969 -0.16334179 -0.025992261 0.014155045 0.010899234 -0.041620318 -0.0646995
-0.07368738 0.0005820718 -0.05261499 0.026933618 -0.19822483 -0.102507904 -0.012081365 -0.05976071
0.016003894 0.09548421 0.016605958 -0.094256155 -0.04448957 0.08116269 -0.07835 -0.08801119
-0.0011895092 0.12430496 0.15925172 -0.026503572 0.08598503 0.005364913 -0.0021240949 0.013290189
-0.09296365 0.03891261 0.063779235 -0.07462945 -0.023738641 -0.1763323 -0.098524585 -0.06656645
-0.029564558 -0.056237757 0.16298364 0.18137378 0.19050276 0.11731907 0.030959344 0.029248651
0.014217817 0.11753379 0.20999303 0.050626945 0.13980597 -0.05904639 0.051497247 0.20722097
0.14234254 -0.084776156 -0.046762414 0.037343744 0.08109783 -0.09333153 -0.011590353 0.18878457
0.17269418 0.0013033244 -0.10191925 0.05868901 0.13124587 -0.10466363 0.0945427 0.053037677
-0.010176622 0.009808308 -0.035969943 0.29095557 -0.0072333594 -0.023603097 -0.16119738 0.17664963
0.04030939 -0.14336157 -0.1939365 0.048213065 0.04886525 -0.22301757 -0.24428913 -0.19412506
-0.057090256 -0.15423334 -0.24308522 -0.18919672 -0.048144404 -0.025261182 -0.040598385 -0.0048100017
0.10552087 0.010299474 0.009637992 -0.026191685 0.20576581 0.09329911 -0.04790447 -0.07619681
-0.053686343 0.13169307 -0.03661227 -0.048396803 -0.10622523 0.06470699 -0.09504673 -0.10439446
-0.12048837 0.090276286 -0.055075385 -0.19137989 0.0010261151 0.016034428 0.023537813 0.012968876
0.13310164 0.25270823 -0.00900111 -0.1595033 -0.056716926 0.05067272 0.13371567 -0.14431767
-0.08334697 0.0787113 -0.041053254 0.032562297 -0.045993328 -0.008458267 0.05802094 -0.10302521
0.03819617 -0.069994345 -0.08186593 -0.09654624 0.037978947 0.2014759 0.14094345 0.007317316
-0.045439973 -0.11678564 0.063316934 0.16303329 0.12222 -0.06918874 -0.13215758 -0.07386254
-0.014738543 0.033204 0.06319133 -0.005034118 -0.17004722 -0.081389524 -0.10249284 0.06638487
-0.03172549 -0.19988737 -0.06684056 -0.0093049165 0.06972164 0.01856796 -0.018575218 -0.007221839
0.12850249 -0.14189199 -0.18624544 -0.12792477 0.005798801 -0.03354422 0.14718215 -0.050226375
-0.17109688 -0.055219218 -0.16389258 0.0385609 0.16116376 -0.1841208 -0.16227886 0.010970672
-0.05138681 -0.11380469 0.014585889 -0.10418424 -0.017256029 -0.028087974 -0.09547583 -0.0932524
-0.02379303 0.015008673 0.05911948 0.16969512 0.12691037 0.10034865 0.007993747 -0.22224283
-0.021626726 0.17676686 0.04534216 0.015857676 -0.061805837 0.07432055 0.16903558 -0.05572503
0.0036507975 0.31204993 -0.025632847 -0.114391945 -0.04025998 0.10853118 0.106088646 0.096044
-0.09117093 -0.100381084 0.15136573 -0.0306344 -0.17342338 0.1269535 0.04909326 -0.08733583
-0.18588923 0.15174085 0.1430146 -0.11848437 -0.39156863 0.07005954 0.10771028 -0.012431606
-0.26419264 0.076079585 0.051461708 0.007547247 0.08263839 -0.15493809 0.09405358 -0.16200157
-0.04296562 0.20240018 0.083336905 -0.10958278 -0.13150862 -0.0090619745 0.12009221 0.010547901
00000000: c0b2 fdbd 6542 00be 1fa3 99bd 2a01 16be
00000010: 9440 72ba 08a2 aebd 295b 5abd 4261 27be
00000020: c694 d03c 4cc4 f73c 1243 27be b9ed d4bc
00000030: 90ea 673c b392 323c 117a 2abd 2c81 84bd
00000040: 69e9 96bd 2d96 183a d182 57bd e4a3 dc3c
00000050: 73fb 4abe aaef d1bd ebf0 45bc a5c7 74bd
00000060: 991a 833c 3a8d c33d 3809 883c 5f09 c1bd
00000070: b23a 36bd a038 a63d f775 a0bd 363f b4bd
00000080: 4ee9 9bba 9993 fe3d e212 233e 051e d9bc
00000090: eb18 b03d 27cc af3b 6634 0bbb 18bf 593c
000000a0: ba63 bebd d462 1f3d b09e 823d 53d7 98bd
000000b0: 8a77 c2bc 7490 34be 42c7 c9bd fe53 88bd
000000c0: 5f31 f2bc 9059 66bd 2fe5 263e 0cba 393e
000000d0: 2813 433e fb44 f03d 739e fd3c de9a ef3c
000000e0: d9f1 683c 8eb5 f03d 6a08 573e 335e 4f3d
000000f0: 4c29 0f3e a1da 71bd c7ee 523d bc31 543e
00000100: 3ec2 113e 1f9f adbd f289 3fbd c1f5 183d
00000110: 9e16 a63d 9a24 bfbd 77e5 3dbc be50 413e
00000120: bed6 303e 4fd4 aa3a 0abb d0bd e363 703d
00000130: 5165 063e e359 d6bd 9a9f c13d 093e 593d
00000140: d9bb 26bc 07b3 203c 3855 13bd 21f8 943e
00000150: d105 edbb 485b c1bc ed10 25be a4e3 343e
00000160: 751b 253d 60cd 12be 4a97 46be 107b 453d
00000170: ee26 483d b85e 64be ee26 7abe b8c8 46be
00000180: 79d7 69bd 58ef 1dbe 55eb 78be c9bc 41be
00000190: 1133 45bd 8af0 cebc 7e4a 26bd 389d 9dbb
000001a0: 531b d83d 20bf 283c abe8 1d3c f28f d6bc
000001b0: 46b4 523e 9b13 bf3d 7a37 44bd 130d 9cbd
000001c0: 36e6 5bbd 8cda 063e bff6 15bd ba3b 46bd
000001d0: 9d8c d9bd 1985 843d dca7 c2bd c3cc d5bd
000001e0: 9bc2 f6bd c6e2 b83d ba96 61bd 17f9 43be
000001f0: b67e 863a a25a 833c 5fd2 c03c 697b 543c
00000200: cc4b 083e f962 813e 6479 13bc d554 23be
00000210: 0250 68bd 338e 4f3d c3ec 083e 03c8 13be
00000220: d1b1 aabd 6433 a13d 7527 28bd 0b60 053d
00000230: 8063 3cbd 8b94 0abc 5da7 6d3d e2fe d2bd
00000240: 9673 1c3d 3259 8fbd 53a9 a7bd 09ba c5bd
00000250: d08f 1b3d b34f 4e3e 7b53 103e 18c6 ef3b
00000260: 441f 3abd 4f2d efbd 4fac 813d 33f2 263e
00000270: 7b4e fa3d d3b2 8dbd 5154 07be 3e45 97bd
00000280: ee79 71bc eb00 083d 756a 813d 3ef5 a4bb
00000290: dc20 2ebe 8daf a6bd c4e7 d1bd caf4 873d
000002a0: 96f2 01bd 46af 4cbe b4e3 88bd a673 18bc
000002b0: 38ca 8e3d d61b 983c 0e2b 98bc 2da5 ecbb
000002c0: 2896 033e 224c 11be 20b7 3ebe b6fe 02be
000002d0: de03 be3b aa65 09bd ebb6 163e 2cba 4dbd
000002e0: 0534 2fbe 8c2d 62bd 75d3 27be 09f2 1d3d
000002f0: 1d08 253e 2a8a 3cbe 6e2c 26be 55be 333c
00000300: fa7a 52bd 6f12 e9bd a7f9 6e3c 8c5e d5bd
00000310: 845c 8dbc c018 e6bc d588 c3bd 1dfb bebd
00000320: 9ae9 c2bc f0e6 753c 4527 723d 8fc4 2d3e
00000330: cbf4 013e 9883 cd3d 34f8 023c a093 63be
00000340: 882a b1bc 5f02 353e b3b8 393d f5e7 813c
00000350: 1e28 7dbd 5f35 983d aa17 2d3e ee3f 64bd
00000360: 3842 6f3b 02c5 9f3e fafb d1bc 5346 eabd
00000370: a6e7 24bd 9845 de3d 0145 d93d b7b2 c43d
00000380: d3b7 babd 9994 cdbd 9eff 1a3e fef4 fabc
00000390: e695 31be 1900 023e 0416 493d 21dd b2bd
000003a0: bf59 3ebe f461 1b3e 6b72 123e efa7 f2bd
000003b0: af7b c8be 607b 8f3d 3597 dc3d efad 4bbc
000003c0: 4244 87be 9dcf 9b3d 83c9 523d e64e f73b
000003d0: 513e a93d 17a8 1ebe 2a9f c03d bde3 25be
000003e0: b8fc 2fbd fe41 4f3e 8aac aa3d f06c e0bd
000003f0: 32aa 06be ad78 14bc e8f2 f53d 1ad1 2c3c

conv2.bias f4 [16]
-0.061160732 -0.047398537 0.8685228 0.19564974 0.19797267 0.23132975 -0.13795337 -0.33318484
0.17833331 -0.58257097 0.0792101 -0.30282465 -0.86765105 1.0017847 -0.036699656 0.17338558
00000000: ad83 7abd f824 42bd 8357 5e3f 6858 483e
00000010: 59b9 4a3e b5e1 6c3e a643 0dbe 3497 aabe
00000020: 029d 363e 5f23 15bf e838 a23d d50b 9bbe
00000030: 611e 5ebf 7b3a 803f 6152 16bd fd8b 313e

fc1.weight f4 [120, 400]
-0.0055468255 0.036452614 -0.039412264 -0.012848537 0.0029444527 0.040956203 0.05961905 0.0017036918
-0.024809804 -0.039520442 0.022719614 -0.046980195 0.014236699 -0.031588122 0.01749687 0.05479648
-0.024100397 0.06446101 -0.031229405 0.032946363 0.028393762 0.027830862 -0.00080170593 0.034790754
0.0125385765 0.033356015 -0.059977107 -0.04649824 0.02007691 0.016327623 -0.03730334 -0.024903083
0.03335188 0.03247846 0.042693432 0.028901875 -0.009296099 0.06296831 0.024488408 0.0011984401
-0.0096991435 0.00913037 0.052900217 0.07180955 0.013451117 0.042056907 0.026151033 0.08200251
-0.00904262 0.03796956 0.03731574 -0.038058892 -0.026750874 0.04566084 0.064872846 0.03798465
-0.05111289 -0.03229637 -0.06804564 0.029194249 -0.031106291 -0.05021 -0.007112446 0.0014244128
0.0649212 0.042301245 -0.0017400106 -0.01687654 -0.03889055 -0.040952474 0.073090844 0.03470948
0.03324337 -0.020049833 -0.033779427 0.116017155 0.07427223 0.07198801 0.08491967 0.10358427
0.03540114 -0.04344448 0.048277277 0.0249004 0.0080659725 -0.04133503 -0.07832878 -0.02116526
0.01432663 -0.057904616 0.0054186466 -0.047362663 -0.033981476 -0.033853307 -0.071479864 -0.040993083
-0.02651287 0.013783821 -0.029310396 -0.05784889 -0.13293289 -0.12213895 -0.07219843 -0.16927588
-0.2017068 -0.053988297 0.0632299 0.09692367 -0.0029993963 -0.017554214 -0.027924811 0.10448723
0.09666219 0.059946764 0.025370445 0.04281885 0.061842605 0.06586427 0.027816111 0.0054590073
0.040265534 0.056115966 -0.018433347 -0.013909435 0.06383713 -0.052044142 0.0047203507 -0.015216722
-0.009613873 -0.040427532 -0.00035505847 -0.01295821 -0.02795822 -0.066525325 -0.0109476205 -0.067280725
0.03832878 0.041485358 0.014198923 -0.018475829 -0.123964086 -0.016250271 0.026243526 -0.012131015
0.059429187 -0.09342889 -0.014082261 -0.077719554 -0.059431408 0.017369647 -0.026761344 0.008885906
0.06679398 0.055160627 0.051364694 -0.095639646 -0.048617836 -0.004798394 -0.06389255 0.042343833
-0.00697536 -0.06390884 -0.101999834 -0.10597807 0.06307352 -0.001736663 0.016496489 0.035165064
0.012388953 0.04718593 0.105535276 0.09084575 -0.0011756796 -0.034728937 0.02181222 0.012664666
0.051685773 -0.00717084 -0.0069253496 -0.040622346 0.019673709 0.0028586285 0.027830264 0.06059232
0.04975046 0.007632647 0.011383957 0.026105763 0.09596671 0.08179766 0.0448715 -0.010728806
0.048826486 0.056205668 -0.002364962 0.08258211 0.014053215 0.05681851 0.10420449 0.097071074
0.02150841 -0.062432732 -0.020380812 0.009979222 -0.06281745 0.054608643 -0.0401357 0.01705956
-0.016301231 -0.04085334 0.02738578 -0.02347716 0.05823661 -0.008539826 0.033981074 -0.009857739
0.014027397 0.0010206342 -0.016709138 0.014099078 -0.0638379 -0.058988865 -0.02937728 0.031152563
-0.035356786 -0.025259476 -0.0503797 0.019840006 0.038308218 0.06455199 -0.0201176 -0.09017252
-0.037841715 -0.012455513 0.027103307 0.0031459965 -0.051767886 -0.01892868 -0.07373216 -0.028086444
-0.009664669 -0.024606451 0.008827623 -0.055018377 -0.04481087 0.046686567 -0.008868252 -0.0138355605
0.046863936 0.029039713 0.021487212 -0.03235262 0.007974428 -0.034063153 -0.0122893825 0.014597246
00000000: 25c2 b5bb 564f 153d c16e 21bd ac82 52bc
00000010: b8f7 403b b1c1 273d 1b33 743d 694e df3a
00000020: ee3d cbbc 30e0 21bd 7c1e ba3c 4e6e 40bd
00000030: 0b41 693c 8c62 01bd 9955 8f3c 4672 603d
00000040: 326e c5bc 2204 843d cfd4 ffbc c4f2 063d
00000050: 099a e83c 8cfd e33c 9329 52ba c080 0e3d
00000060: 9a6e 4d3c 51a0 083d 8eaa 75bd f074 3ebd
00000070: 5578 a43c 82c1 853c 63cb 18bd 8d01 ccbc
00000080: fb9b 083d 2208 053d 4fdf 2e3d a0c3 ec3c
00000090: aa4e 18bc 88f5 803d ea9b c83c fa14 9d3a
000000a0: 28e9 1ebc 8c97 153c e6ad 583d e310 933d
000000b0: 1362 5c3c dd43 2c3d b13a d63c eff0 a73d
000000c0: 7f27 14bc f885 1b3d 64d8 183d a4e3 1bbd
000000d0: a624 dbbc dc06 3b3d 0edc 843d cb95 1b3d
000000e0: c05b 51bd 3349 04bd 835b 8bbd c728 ef3c
000000f0: 9fd2 febc 00a9 4dbd 850f e9bb 5db3 ba3a
00000100: 68f5 843d 1244 2d3d 1111 e4ba ab40 8abc
00000110: b34b 1fbd c8bd 27bd a7b0 953d 872b 0e3d
00000120: 332a 083d 8c3f a4bc 4c5c 0abd 679a ed3d
00000130: 0a1c 983d 736e 933d 5dea ad3d fd23 d43d
00000140: c900 113d d7f2 31bd 65be 453d ecfb cb3c
00000150: 2427 043c ec4e 29bd d76a a0bd c462 adbc
00000160: 3eba 6a3c 642d 6dbd e78e b13b 5aff 41bd
00000170: 2930 0bbd c4a9 0abd 0964 92bd 5de8 27bd
00000180: 8531 d9bc 89d5 613c 5b1c f0bc f5f2 6cbd
00000190: 8f1f 08be fc23 fabd c5dc 93bd a856 2dbe
000001a0: 3a8c 4ebe d522 5dbd ae7e 813d eb7f c63d
000001b0: 8591 44bb dbcd 8fbc 93c2 e4bc 67fd d53d
000001c0: d4f6 c53d bd8a 753d aed5 cf3c d262 2f3d
000001d0: ac4e 7d3d d9e3 863d 9dde e33c 79e1 b23b
000001e0: 79ed 243d dbd9 653d 8801 97bc 66e4 63bc
000001f0: 0bbd 823d 3d2c 55bd 2cad 9a3b 8f4f 79bc
00000200: 8283 1dbc 5797 25bd 2427 bab9 ac4e 54bc
00000210: a308 e5bc 6e3e 88bd a65d 33bc 7aca 89bd
00000220: a4fe 1c3d 8dec 293d 99a2 683c 9f5a 97bc
00000230: e2e0 fdbd 4a1f 85bc aafc d63c 2ac1 46bc
00000240: 056c 733d a557 bfbd 49b9 66bc 6e2b 9fbd
00000250: 596e 73bd ca4a 8e3c 9b3a dbbc 3196 113c
00000260: 48cb 883d 1cf0 613d c963 523d b8de c3bd
00000270: 7f23 47bd d93b 9dbb 19da 82bd ba70 2d3d
00000280: 9091 e4bb a3e2 82bd 4ae5 d0bd 080b d9bd
00000290: b12c 813d bea0 e3ba a523 873c 3e09 103d
000002a0: 09fb 4a3c 0946 413d e122 d83d 560d ba3d
000002b0: 4319 9aba ee3f 0ebd 8aaf b23c 767f 4f3c
000002c0: 76b4 533d 5ef9 eabb 0bee e2bb 9e63 26bd
000002d0: c22a a13c d457 3b3b 4bfc e33c a72f 783d
000002e0: 23c7 4b3d 491b fa3b c783 3a3c c1db d53c
000002f0: 328a c43d 8885 a73d 2ecb 373d e0c7 2fbc
00000300: 48fe 473d ea37 663d 7afd 1abb cf20 a93d
00000310: 753f 663c 87ba 683d 2a69 d53d 33cd c63d
00000320: 6832 b03c 77b9 7fbd a9f5 a6bc e47f 233c
00000330: 6fa6 80bd 50ad 5f3d 5565 24bd 7ec0 8b3c
00000340: 298a 85bc d555 27bd 2558 e03c 2c53 c0bc
00000350: 8389 6e3d a0ea 0bbc bd2f 0b3d 5b82 21bc
00000360: 2bd3 653c cdc6 853a 9ae1 88bc d2ff 663c
00000370: 72bd 82bd 4f9e 71bd 9fa8 f0bc a933 ff3c
00000380: 47d2 10bd f6ec cebc f25a 4ebd 8287 a23c
00000390: 14e9 1c3d d533 843d aacd a4bc 5fac b8bd
000003a0: eaff 1abd 3512 4cbc c107 de3c 102d 4e3b
000003b0: 900a 54bd 5210 9bbc e300 97bd 8b15 e6bc
000003c0: 8f58 1ebc 7893 c9bc bca1 103c f35a 61bd
000003d0: 9a8b 37bd 6a3a 3f3d 254c 11bc 8cae 62bc
000003e0: 66f4 3f3d b1e4 ed3c f305 b03c 2e84 04bd
000003f0: 2da7 023c ce85 0bbd 6859 49bc 4a29 6f3c

fc1.bias f4 [120]
0.023169763 -0.005474687 0.087061614 0.010058803 -0.10228981 -0.022442585 -0.035541657 0.093445726
-0.013470615 -0.0049385834 0.046202876 0.059561446 -0.10471236 -0.034034505 0.06006525 0.0067131734
-0.047273483 0.14119643 0.029324258 -0.029529039 -0.046867877 -0.012477146 0.036029033 -0.078048475
-0.058813445 0.1563962 -0.010460865 0.1822519 -0.019445982 0.06829767 0.01089534 -0.06201228
0.20706703 0.040738814 0.050854463 0.11216798 0.034833215 0.18272205 0.09874884 0.0091814725
0.015289378 0.011092244 -0.020768283 0.066131584 -0.01909319 -0.035733487 0.022198329 -0.048716288
-0.10092371 -0.027653337 -0.06964746 0.018483663 -0.042229645 -0.02632309 -0.013695497 0.035265174
-0.033379693 -0.003866614 0.0844301 0.03457863 -0.016734408 0.17845456 0.22068332 0.049424533
0.027006188 0.06975102 0.0028815728 -0.045287497 0.0022557243 0.03199464 0.0029198478 -0.21186088
0.004547944 0.12353408 -0.046449512 0.16303264 0.15900338 0.005146268 0.008496892 0.010592435
-0.07348055 -0.033323172 -0.053289566 -0.049448926 0.090909705 -0.012661137 -0.0024569803 -0.06617621
0.06280374 0.053714063 0.08151838 0.038091898 -0.012383782 -0.0149401445 -0.026044335 -0.014062391
0.024337435 -0.037023626 0.08960137 -0.06537197 0.19277892 -0.036516964 0.071655445 -0.0083934385
0.074213006 -0.048037637 0.008257291 -0.008690442 0.101886526 -0.0342126 0.031869974 -0.07049651
0.0028735031 0.06389661 0.04568852 0.16992664 0.13672866 0.02070311 -0.03183986 -0.051786948
00000000: 84ce bd3c 0165 b3bb 5c4d b23d adcd 243c
00000010: 527d d1bd 83d9 b7bc 2194 11bd 7960 bf3d
00000020: dbb3 5cbc d7d3 a1bb 3a3f 3d3d b4f6 733d
00000030: 6f73 d6bd c467 0bbd fb06 763d 2efa db3b
00000040: d7a1 41bd cc95 103e 6d39 f03c e2e6 f1bc
00000050: 88f8 3fbd f26c 4cbc 2e93 133d e1d7 9fbd
00000060: 5ee6 70bd 5326 203e 0c64 2bbc 3ea0 3a3e
00000070: 2e4d 9fbc a6df 8b3d 5e82 323c 9700 7ebd
00000080: 6109 543e bedd 263d c54c 503d 53b8 e53d
00000090: 46ad 0e3d 7d1b 3b3e d53c ca3d e36d 163c
000000a0: 4d80 7a3c 3ebc 353c 3f22 aabc ff6f 873d
000000b0: 5269 9cbc 475d 12bd 45d9 b53c bb8a 47bd
000000c0: 17b1 cebd 4089 e2bc 54a3 8ebd 0d6b 973c
000000d0: fef8 2cbd 85a3 d7bc 1463 60bc 3772 103d
000000e0: 25b9 08bd 0567 7dbb b0e9 ac3d 52a2 0d3d
000000f0: 9916 89bc cbbc 363e cffa 613e 6171 4a3d
00000100: 153c dd3c 9fd9 8e3d c5d8 3c3b 627f 39bd
00000110: c6d4 133b d00c 033d eb5a 3f3b 0ff2 58be
00000120: eb06 953b 70ff fc3d d841 3ebd 07f2 263e
00000130: c8d1 223e 06a2 a83b 8c36 0b3c e48b 2d3c
00000140: f87c 96bd e17d 08bd 2946 5abd f58a 4abd
00000150: de2e ba3d a870 4fbc 4a05 21bb 6587 87bd
00000160: 3f9f 803d 4703 5c3d 1cf3 a63d 4006 1c3d
00000170: 59e5 4abc 82c7 74bc ee5a d5bc f165 66bc
00000180: 4d5f c73c 16a6 17bd ec80 b73d bde1 85bd
00000190: d667 453e d092 15bd 17c0 923d a284 09bc
000001a0: fdfc 973d 1dc3 44bd 9749 073c 5b62 0ebc
000001b0: e2a9 d03d 8322 0cbd 178a 023d 7960 90bd
000001c0: 6251 3c3b 3adc 823d e323 3b3d 4001 2e3e
000001d0: 9902 0c3e 9299 a93c 836a 02bd 8d1e 54bd

fc2.weight f4 [84, 120]
0.044133447 -0.09607141 -0.09983067 0.0676284 -0.0149889365 -0.08490862 -0.026043808 0.08836875
0.013008724 0.04583091 0.07428774 -0.0035735217 0.00042588057 -0.010272299 -0.08128391 -0.042569004
0.0067668534 -0.15424334 -0.11472835 -0.042229887 0.06348682 0.021113042 -0.008368137 -0.038217425
-0.057921004 0.054595836 -0.09764563 -0.079471335 0.021682642 0.016634136 0.018249732 0.013075967
0.016598696 0.08332577 0.029663622 -0.091366105 0.03239147 0.10446876 -0.08200994 -0.029728241
-0.035608996 -0.06647128 0.026482265 -0.090988405 0.03181089 -0.04753785 0.040530447 -0.110371925
-0.006150134 -0.008775835 -0.017115194 0.036007747 0.065477856 -0.018001338 -0.0027607847 0.04356122
0.037003145 -0.0007096882 0.021542188 -0.06566311 -0.06705633 0.11065505 0.015104035 -0.09028157
-0.04124112 0.09244245 -0.11386676 0.02620487 0.08755855 0.022719754 0.047047656 -0.041771617
0.07787314 0.005381993 -0.21393378 -0.12743345 0.085424334 0.14021786 0.014332042 0.08197969
-0.06031039 -0.051689345 -0.05289775 0.12286252 -0.030674543 -0.075686626 0.067600414 -0.00693025
0.16928 -0.045447584 -0.03862578 0.052968875 0.06111722 -0.07268715 0.048847336 -0.05476961
0.09204729 -0.08714852 0.05526083 0.09178837 -0.061462294 0.08843807 0.102403335 0.041586228
-0.06832673 0.11938288 0.0051419674 0.08547329 0.036128044 -0.0034938839 -0.11833551 0.13525261
0.029604731 0.15260337 -0.042633425 -0.019412259 0.05110825 -0.10302397 0.009486653 -0.034603786
-0.01440859 -0.007652962 -0.0029803512 -0.08168901 -0.06328334 -0.057268776 0.020301605 0.028499264
-0.00071360474 0.042101905 0.011949924 0.07441985 -0.052412268 0.045928895 -0.09196885 -0.029502649
0.037554733 -0.09153588 -0.02664586 -0.030132702 0.04920754 -0.0033403598 0.03791004 0.0057164864
-0.022748472 -0.011039619 0.085073225 -0.06557281 -0.075561464 0.060390927 -0.048130594 -0.06627203
-0.057953827 -0.016670074 0.032036465 0.055545237 -0.054194916 0.04521523 0.060917135 0.04352342
0.04220098 0.046228368 -0.052024562 -0.086421125 -0.053325348 0.04935873 -0.080709554 0.057094462
-0.08756696 -0.028568953 0.007038288 0.044317562 0.03095073 -0.009815568 0.051274993 -0.081876576
-0.033077113 0.041951586 -0.026384586 -0.026727866 -0.057263065 -0.07521835 -0.09055775 0.031210227
-0.08635382 0.1014492 0.033639997 -0.09072156 0.090052634 0.020882364 0.074187085 -0.0035648015
0.06177704 0.008440646 -0.02907605 -0.10249258 -0.04399933 -0.06426493 -0.00784629 0.050923683
-0.063046694 0.06565255 -0.04940715 0.04673342 0.03629758 0.021229196 -0.07331344 0.027928453
0.0033323262 -0.029029148 0.050862912 0.09110877 0.04810512 0.06347895 0.08520741 0.022161271
-0.03664642 -0.03269792 0.031003313 -0.06926708 -0.07214315 0.05639795 0.07806385 -0.047577213
0.019172402 -0.073888265 0.05848155 -0.07276667 0.078591295 0.01977322 0.070380725 0.04051011
0.031435505 -0.07329843 -0.020742966 0.011373316 0.022533236 -0.003849942 -0.03055535 -0.0032031203
0.13823599 -0.097521804 -0.055196982 -0.07723581 -0.014989351 0.07970948 -0.1798927 0.0028449416
-0.010261078 0.0017188282 -0.028685184 0.048220627 -0.044224817 -0.028711984 0.015585333 -0.055954058
00000000: 46c5 343d 16c1 c4bd 0674 ccbd c280 8a3d
00000010: 2894 75bc 92e4 adbd d359 d5bc adfa b43d
00000020: 8b22 553c 31b9 3b3d 2c24 983d bf31 6abb
00000030: b948 df39 254d 28bc 2e78 a6bd d65c 2ebd
00000040: 7bbc dd3b f7f1 1dbe b2f6 eabd 3ff9 2cbd
00000050: 6105 823d 42f5 ac3c 831a 09bc e089 1cbd
00000060: 933e 6dbd e29f 5f3d 6ffa c7bd dec1 a2bd
00000070: cc9f b13c 5044 883c 7680 953c 953c 563c
00000080: fdf9 873c b4a6 aa3d 2001 f33c 271e bbbd
00000090: ebac 043d b8f3 d53d d4f4 a7bd a488 f3bc
000000a0: bdda 11bd 1822 88bd 56f1 d83c 2158 babd
000000b0: 234c 023d 0cb7 42bd 4103 263d ad0a e2bd
000000c0: 1087 c9bb 85c8 0fbc 2a35 8cbc dc7c 133d
000000d0: 4119 863d 8b77 93bc 48ee 34bb 406d 323d
000000e0: 9c90 173d 5e0a 3aba 3e79 b03c 617a 86bd
000000f0: d454 89bd 1d9f e23d ea76 773c 8be5 b8bd
00000100: 73ec 28bd 7852 bd3d fa32 e9bd 98ab d63c
00000110: e651 b33d c71e ba3c 0bb5 403d b718 2bbd
00000120: f47b 9f3d 6e5b b03b 7511 5bbe ea7d 02be
00000130: f4f2 ae3d 4595 0f3e f1d0 6a3c f8e4 a73d
00000140: 0708 77bd 35b8 53bd 50ab 58bd 589f fb3d
00000150: 2e49 fbbc 9701 9bbd 1672 8a3d 2717 e3bb
00000160: bc57 2d3e 3f27 3abd 1136 1ebd e4f5 583d
00000170: 0d56 7a3d 00dd 94bd 2514 483d 1956 60bd
00000180: 4a83 bc3d ec7a b2bd 2e59 623d 8afb bb3d
00000190: e3bf 7bbd 051f b53d d7b8 d13d 5256 2a3d
000001a0: e2ee 8bbd 037f f43d f37d a83b 9f0c af3d
000001b0: 00fb 133d a5f9 64bb e359 f2bd a97f 0a3e
000001c0: 9f85 f23c 0f44 1c3e 63a0 2ebd 7506 9fbc
000001d0: e256 513d 3bfe d2bd e86d 1b3c b3bc 0dbd
000001e0: 0212 6cbc b3c5 fabb ff51 43bb 914c a7bd
000001f0: b29a 81bd aa92 6abd 8d4f a63c 4a77 e93c
00000200: 3411 3bba 0c73 2c3d 9dc9 433c 6f69 983d
00000210: 3fae 56bd f01f 3c3d 2a5a bcbd 8aaf f1bc
00000220: fed2 193d 2a77 bbbd 6b48 dabc dbd8 f6bc
00000230: d88d 493d f0e9 5abb 8f47 1b3d 5d51 bb3b
00000240: 015b babc 85df 34bc df3a ae3d 0a4b 86bd
00000250: f8bf 9abd 7a5c 773d 9624 45bd a1b9 87bd
00000260: fe60 6dbd ae8f 88bc ab38 033d 6783 633d
00000270: 7dfb 5dbd 9b33 393d 3f84 793d 9d45 323d
00000280: efda 2c3d f559 3d3d b517 55bd 8ffd b0bd
00000290: ae6b 5abd 612c 4a3d 0d4b a5bd e2db 693d
000002a0: 4e56 b3bd 7009 eabc 70a1 e63b 5586 353d
000002b0: 638c fd3c 7ad1 20bc ba05 523d e8ae a7bd
000002c0: de7b 07bd 6dd5 2b3d 7d24 d8bc 66f4 dabc
000002d0: ad8c 6abd 140c 9abd 5776 b9bd 97ac ff3c
000002e0: 46da b0bd 99c4 cf3d 18ca 093d 3acc b9bd
000002f0: 846d b83d 7e11 ab3c 66ef 973d 729f 69bb
00000300: ec09 7d3d a34a 0a3c e530 eebc a1e7 d1bd
00000310: a438 34bd 559d 83bd ba8d 00bc 5a95 503d
00000320: a01e 81bd d874 863d 275f 4abd 8b6b 3f3d
00000330: c5ac 143d dae8 ad3c 5b25 96bd 36ca e43c
00000340: 2863 5a3b 89ce edbc a155 503d 3c97 ba3d
00000350: e009 453d 4001 823d 3981 ae3d 8e8b b53c
00000360: 8e1a 16bd 41ee 05bd a9fa fd3c e6db 8dbd
00000370: cabf 93bd 8901 673d f1df 9f3d 53e0 42bd
00000380: 710f 9d3c bb52 97bd 5a8a 6f3d b106 95bd
00000390: 79f4 a03d 73fb a13c c523 903d eeed 253d
000003a0: 84c2 003d 7d1d 96bd 27ed a9bc 2557 3a3c
000003b0: 9f97 b83c 4f4f 7cbb 374f fabc 71eb 51bb
000003c0: bc8d 0d3e 83b9 c7bd 3b16 62bd cf2d 9ebd
000003d0: e595 75bc b93e a33d cb35 38be 3372 3a3b
000003e0: 151e 28bc 4e4a e13a 31fd eabc fe82 453d
000003f0: 1525 35bd 6535 ebbc a059 7f3c 1530 65bd

fc2.bias f4 [84]
-0.012337017 0.0055887904 0.13094056 -0.03246421 -0.044340737 0.29546902 0.16409102 0.01788628
-0.09356013 0.07017471 -0.05523779 0.028425915 -0.088250324 0.31201127 -0.08681805 -0.0027019742
0.11556642 0.039813686 0.32002753 0.021977961 -0.026437124 -0.079861246 0.22536619 -0.0718184
-0.06290373 -0.044574544 0.038241506 0.038985427 -0.035485182 0.024446335 0.056621168 0.0046184217
0.21834841 -0.033993643 0.030985605 0.057326164 0.053151518 0.09147595 0.32582474 -0.03381067
-0.14129664 0.037565384 0.038547058 0.28402364 -0.06578863 0.036685966 0.18653719 0.06458956
-0.06116583 -0.07358209 0.27220827 -0.08212616 0.050278325 0.13670747 -0.109083265 0.14883302
0.00816186 -0.012549116 0.018101944 -0.035277784 -0.02417052 -0.062090807 -0.078865185 0.025930412
-0.03615251 -0.029546194 -0.0023056192 0.18208702 0.0034403629 0.1402369 -0.049378168 -0.08730847
-0.060402606 -0.014356508 0.2492344 0.17177536 0.009948198 -0.034014855 0.048458718 0.2296336
0.17367733 -0.18889332 -0.103750825 -0.06513097
00000000: 3321 4abc 2c22 b73b 4815 063e 31f9 04bd
00000010: a29e 35bd b747 973e 7a07 283e 3f86 923c
00000020: 749c bfbd c2b7 8f3d 0541 62bd 77dd e83c
00000030: 96bc b4bd f1bf 9f3e a9cd b1bd 9b13 31bb
00000040: 16ae ec3d ad13 233d a6da a33e 200b b43c
00000050: ab92 d8bc 4b8e a3bd 65c6 663e 8615 93bd
00000060: acd3 80bd cc93 36bd 20a3 1c3d 2faf 1f3d
00000070: e958 11bd ae43 c83c 99eb 673d 2156 973b
00000080: ba96 5f3e eb3c 0bbd 86d5 fd3c d7ce 6a3d
00000090: 68b5 593d be57 bb3d 80d2 a63e 0f7d 0abd
000000a0: 11b0 10be 29de 193d 85e3 1d3d 8c6b 913e
000000b0: 30bc 86bd 0644 163d 9b03 3f3e 8847 843d
000000c0: 0589 7abd 35b2 96bd e25e 8b3e c331 a8bd
000000d0: a5f0 4d3d 0bfd 0b3e 0c67 dfbd af67 183e
000000e0: 52b9 053c cf9a 4dbc 874a 943c 707f 10bd
000000f0: 4101 c6bc ee52 7ebd 1284 a1bd 046c d43c
00000100: a814 14bd dc0a f2bc df19 17bb 0575 3a3e
00000110: b677 613b 439a 0f3e c340 4abd c8ce b2bd
00000120: b968 77bd 8f37 6bbc 4d37 7f3e e1e5 2f3e
00000130: c4fd 223c 2953 0bbd a67c 463d 1225 6b3e
00000140: 78d8 313e 406d 41be 507b d4bd 6363 85bd

fc3.weight f4 [10, 84]
-0.10138395 -0.0034707936 0.020233953 -0.07534076 -0.23573343 0.08160405 -0.031084806 0.12448202
0.06647065 -0.010526338 0.072676346 -0.053821914 -0.102640495 -0.0794942 0.0019299799 0.051295564
-0.057909504 -0.07520517 -0.2752482 -0.114292555 -0.13632187 -0.022187904 -0.034915533 0.015629629
0.0070057223 0.070020124 0.13532138 -0.1753756 0.026617067 -0.17382765 0.12649564 0.1184749
0.31653392 0.14273088 0.03431362 0.1551142 0.0952726 -0.05278885 -0.21329106 -0.033074196
0.07368916 -0.065404214 0.04815863 -0.1751661 0.10908612 -0.041008916 -0.0025505624 0.012248514
-0.1808971 0.03868535 0.2102852 0.24551539 -0.07399846 0.0005412767 0.13798721 -0.25935698
-0.20968346 -0.042435516 0.18618461 -0.010854569 0.10777526 0.26181453 -0.03803513 0.032442395
0.0064249095 0.11169514 0.20194666 0.30007008 0.088713825 -0.07421344 -0.15830645 -0.011215849
-0.016415372 0.081836484 -0.27448836 0.15117015 0.31276417 0.06455879 0.0006700272 0.20816208
-0.19724485 0.1762168 -0.092445634 -0.088537864 0.023901599 0.06698021 -0.16388902 0.10339535
0.083050326 -0.2003083 0.046648208 -0.058462054 0.05224557 0.045349315 -0.08701726 0.08773557
-0.03958662 -0.32591918 0.16527262 -0.030845257 0.12651555 0.09942239 -0.17230372 0.15990187
0.13768147 -0.088967204 -0.28098568 0.08343364 -0.030799879 0.025641143 0.09040716 -0.05182665
0.07724654 0.32432544 0.03033834 -0.021207089 -0.18363972 -0.23033674 0.08286163 -0.090858355
0.0066642403 -0.007870508 -0.3649932 0.05206541 0.076190025 0.1839281 -0.06312959 -0.29580718
-0.11497147 0.009280847 -0.14982274 0.083820656 -0.12269705 0.017843854 0.08687558 -0.20439939
0.03717484 -0.3484562 0.1637045 -0.08445573 0.091108546 -0.055732522 -0.02384981 0.002539997
-0.049109064 0.06665988 0.10108191 0.13371144 -0.04618351 -0.1347909 -0.055557188 -0.24707128
0.17901556 -0.046264213 0.1306415 0.032964736 0.26980042 0.010661054 0.045412205 0.1908642
0.2870803 0.22322121 0.05244037 0.3547947 -0.30152133 0.24161103 0.095841095 -0.03630048
0.22700535 -0.096166104 0.32466322 0.08939527 -0.14351656 0.046965905 -0.1262776 -0.032444376
0.05985217 -0.027001586 0.0033083523 0.005915651 -0.12684944 0.13395305 -0.096765436 0.014377875
-0.22796224 0.0031799665 -0.042818006 0.044313915 0.066514626 -0.044052742 0.2167696 0.010444132
-0.04894281 0.09652072 -0.06685156 -0.027805239 -0.00060390076 -0.060316633 -0.04904695 0.007464652
0.16916129 0.025976412 -0.06259099 0.013742699 0.087618396 0.12151954 0.11287872 -0.0013813325
0.21575597 0.07252392 0.2236606 0.32512096 -0.058786195 0.007968377 0.09311975 0.08197668
0.025653763 0.01478328 -0.06343275 0.15050834 -0.047529195 0.17254089 -0.11661341 -0.052097477
0.023490358 -0.017111264 -0.08562747 0.016817806 -0.13887529 0.13976847 0.0362666 -0.059507616
0.12381758 -0.008111628 -0.05281036 0.17956296 -0.133256 0.1006056 -0.10574853 -0.11927311
-0.040987805 -0.06323222 0.2001569 -0.1138491 0.15035658 -0.21403772 0.07599912 -0.10541514
0.015338994 -0.1599356 -0.008258652 0.017645665 -0.19181488 -0.09082452 0.07053498 0.029644266
00000000: 63a2 cfbd 4176 63bb adc1 a53c 424c 9abd
00000010: 1b64 71be 0620 a73d 90a5 febc 6ef0 fe3d
00000020: c421 883d a976 2cbc 56d7 943d 5e74 5cbd
00000030: 2e35 d2bd dbcd a2bd 61f7 fc3a 4c1b 523d
00000040: 8432 6dbd 2b05 9abd 55ed 8cbe 3712 eabd
00000050: f697 0bbe 68c3 b5bc 9703 0fbd b509 803c
00000060: 4290 e53b b666 8f3d b091 0a3e a995 33be
00000070: 090c da3c e0ff 31be 1388 013e f8a2 f23d
00000080: bc10 a23e 0b28 123e 708c 0c3d 42d6 1e3e
00000090: 481e c33d 1f39 58bd f968 5abe cf78 07bd
000000a0: 58ea 963d a5f2 85bd fc41 453d be5e 33be
000000b0: 8b68 df3d f7f8 27bd 5627 27bb fead 483c
000000c0: 173d 39be 8874 1e3d 0155 573e 6368 7b3e
000000d0: 818c 97bd 77e4 0d3a 854c 0d3e 70ca 84be
000000e0: 43b7 56be ddd0 2dbd 2ea7 3e3e 5dd7 31bc
000000f0: 47b9 dc3d 8e0c 863e b9ca 1bbd 51e2 043d
00000100: 0c88 d23b 6cc0 e43d 1bcb 4e3e c9a2 993e
00000110: 98af b53d 37fd 97bd 161b 22be aec2 37bc
00000120: 8879 86bc e399 a73d bd89 8cbe 59cc 1a3e
00000130: a022 a03e 6637 843d c4a4 2f3a 7128 553e
00000140: 8efa 49be 2d72 343e 2354 bdbd 5753 b5bd
00000150: 49cd c33c ec2c 893d 86d2 27be f1c0 d33d
00000160: 4a16 aa3d 9e1d 4dbe 3112 3f3d e875 6fbd
00000170: 73ff 553d 34c0 393d 1b36 b2bd b5ae b33d
00000180: 9425 22bd e1de a6be 3a3d 293e 31af fcbc
00000190: 4b8d 013e f79d cb3d 6370 30be 51bd 233e
000001a0: 5ffc 0c3e 7034 b6bd 5bdd 8fbe 42df aa3d
000001b0: 0750 fcbc 600d d23c 6427 b93d 2e48 54bd
000001c0: 6f33 9e3d fc0d a63e 1c88 f83c 7dba adbc
000001d0: 0d0c 3cbe 65dd 6bbe 5cb3 a93d f213 babd
000001e0: b35f da3b 4ef3 00bc 64e0 babe 8a42 553d
000001f0: 8409 9c3d a657 3c3e 164a 81bd 0a74 97be
00000200: 2976 ebbd b20e 183c 226b 19be 2aaa ab3d
00000210: 9748 fbbd 462d 923c d3eb b13d 134e 51be
00000220: a544 183d da68 b2be 27a2 273e 20f7 acbd
00000230: 1e97 ba3d c947 64bd ad60 c3bc 1476 263b
00000240: 9626 49bd fa84 883d 0804 cf3d a7eb 083e
00000250: ec2a 3dbd a006 0abe ef8f 63bd 4100 7dbe
00000260: db4f 373e 8b7f 3dbd e3c6 053e 0806 073d
00000270: 4823 8a3e b4ab 2e3c 2602 3a3d e871 433e
00000280: 30fc 923e 1a94 643e b7cb 563d a7a7 b53e
00000290: 0161 9abe e268 773e 5648 c43d d0af 14bd
000002a0: 1774 683e bcf2 c4bd 423a a63e de14 b73d
000002b0: 01f6 12be 525f 403d ea4e 01be 65e4 04bd
000002c0: 8d27 753d 6e32 ddbc f1d0 583b 14d8 c13b
000002d0: d2e4 01be fd2a 093e f52c c6bd 2e91 6b3c
000002e0: ef6e 69be fc66 503b ef61 2fbd 8282 353d
000002f0: d238 883d a670 34bd daf8 5d3e dd1d 2b3c
00000300: 4278 48bd a8ac c53d 78e9 88bd d0c7 e3bc
00000310: 184f 1eba 930e 77bd 74e5 48bd 0a9a f43b
00000320: 9e38 2d3e 7ccc d43c b42f 80bd 0f29 613c
00000330: 4671 b33d 3ddf f83d f52c e73d d40d b5ba
00000340: 22ef 5c3e 6c87 943d 4907 653e 4176 a63e
00000350: cbc9 70bd cc8d 023c 91b5 be3d 64e3 a73d
00000360: d727 d23c 9235 723c 08e9 81bd dc1e 1a3e
00000370: f9ad 42bd 8fae 303e 03d3 eebd 2a64 55bd
00000380: da6e c03c ec2c 8cbc 745d afbd 7fc5 893c
00000390: 5335 0ebe 771f 0f3e 498c 143d 42be 73bd
000003a0: 1294 fd3d a2e6 04bc ad4f 58bd 5adf 373e
000003b0: 4374 08be 4f0a ce3d af92 d8bd 7645 f4bd
000003c0: d4e2 27bd e57f 81bd eef5 4c3e b829 e9bd
000003d0: 13f7 193e b42c 5bbe 6da5 9b3d e5e3 d7bd
000003e0: 6750 7b3c 28c6 23be 4c4f 07bc a48d 903c
000003f0: 1f6b 44be 3502 babd a574 903d 88d8 f23c

fc3.bias f4 [10]
-0.15459475 -0.5159729 0.19066414 0.369056 0.2559539 -0.12870473 0.032267034 -0.31593868
0.5362276 -0.19730349
00000000: 164e 1ebe cd16 04bf 763d 433e e8f4 bc3e
00000010: 640c 833e 2ccb 03be 702a 043d b7c2 a1be
00000020: 3646 093f ed09 4abe
